…
ling next.\n\n\nGéron (2022) Chapter 11, test accuracy of 92% on the Fashion-MNIST dataset"
  },
  {
    "objectID": "lectures/14/slides.html#keras-output",
    "href": "lectures/14/slides.html#keras-output",
    "title": "Neural Networks Architectures",
    "section": "Keras",
    "text": "Keras\n\nModel: \"sequential\"\n\n\n\n┏━━━━━━━━━━━━━━━━━━━━━━━━━━━━━━━━━┳━━━━━━━━━━━━━━━━━━━━━━━━┳━━━━━━━━━━━━━━━┓\n┃ Layer (type)                    ┃ Output Shape           ┃       Param # ┃\n┡━━━━━━━━━━━━━━━━━━━━━━━━━━━━━━━━━╇━━━━━━━━━━━━━━━━━━━━━━━━╇━━━━━━━━━━━━━━━┩\n│ conv2d (Conv2D)                 │ (None, 28, 28, 64)     │         3,200 │\n├─────────────────────────────────┼────────────────────────┼───────────────┤\n│ max_pooling2d (MaxPooling2D)    │ (None, 14, 14, 64)     │             0 │\n├─────────────────────────────────┼────────────────────────┼───────────────┤\n│ conv2d_1 (Conv2D)               │ (None, 14, 14, 128)    │        73,856 │\n├─────────────────────────────────┼────────────────────────┼───────────────┤\n│ conv2d_2 (Conv2D)               │ (None, 14, 14, 128)    │       147,584 │\n├─────────────────────────────────┼────────────────────────┼───────────────┤\n│ max_pooling2d_1 (MaxPooling2D)  │ (None, 7, 7, 128)      │             0 │\n├─────────────────────────────────┼────────────────────────┼───────────────┤\n│ conv2d_3 (Conv2D)               │ (None, 7, 7, 256)      │       295,168 │\n├─────────────────────────────────┼────────────────────────┼───────────────┤\n│ conv2d_4 (Conv2D)               │ (None, 7, 7, 256)      │       590,080 │\n├─────────────────────────────────┼────────────────────────┼───────────────┤\n│ max_pooling2d_2 (MaxPooling2D)  │ (None, 3, 3, 256)      │             0 │\n├─────────────────────────────────┼────────────────────────┼───────────────┤\n│ flatten (Flatten)               │ (None, 2304)           │             0 │\n├─────────────────────────────────┼────────────────────────┼───────────────┤\n│ dense (Dense)                   │ (None, 128)            │       295,040 │\n├─────────────────────────────────┼────────────────────────┼───────────────┤\n│ dropout (Dropout)               │ (None, 128)            │             0 │\n├─────────────────────────────────┼────────────────────────┼───────────────┤\n│ dense_1 (Dense)                 │ (None, 64)             │         8,256 │\n├─────────────────────────────────┼────────────────────────┼───────────────┤\n│ dropout_1 (Dropout)             │ (None, 64)             │             0 │\n├─────────────────────────────────┼────────────────────────┼───────────────┤\n│ dense_2 (Dense)                 │ (None, 10)             │           650 │\n└─────────────────────────────────┴────────────────────────┴───────────────┘\n\n\n\n Total params: 1,413,834 (5.39 MB)\n\n\n\n Trainable params: 1,413,834 (5.39 MB)\n\n\n\n Non-trainable params: 0 (0.00 B)"
  },
  {
    "objectID": "lectures/14/slides.html#convolutional-neural-networks",
    "href": "lectures/14/slides.html#convolutional-neural-networks",
    "title": "Neural Networks Architectures",
…
          new_state[col] = row\n              neighbors.append(new_state)\n\n    return neighbors\n\n\n\nRussell and Norvig (2020), \\(8 \\times 7 = 56\\) neighbours"
  },
  {
    "objectID": "lectures/17/slides.html#get_neighbors_rn-1",
    "href": "lectures/17/slides.html#get_neighbors_rn-1",
    "title": "Local Search",
    "section": "get_neighbors_rn",
    "text": "get_neighbors_rn\n\ninitial_state_8 = create_initial_state(8)\nprint(initial_state_8)\nfor s in get_neighbors_rn(initial_state_8):\n  print(f\"{s} -&gt; # of conflicts = {calculate_conflicts(s)}\")\n\n[3, 2, 7, 1, 6, 0, 4, 5]\n[0, 2, 7, 1, 6, 0, 4, 5] -&gt; # of conflicts = 5\n[1, 2, 7, 1, 6, 0, 4, 5] -&gt; # of conflicts = 6\n[2, 2, 7, 1, 6, 0, 4, 5] -&gt; # of conflicts = 6\n[4, 2, 7, 1, 6, 0, 4, 5] -&gt; # of conflicts = 6\n[5, 2, 7, 1, 6, 0, 4, 5] -&gt; # of conflicts = 7\n[6, 2, 7, 1, 6, 0, 4, 5] -&gt; # of conflicts = 5\n[7, 2, 7, 1, 6, 0, 4, 5] -&gt; # of conflicts = 5\n[3, 0, 7, 1, 6, 0, 4, 5] -&gt; # of conflicts = 5\n[3, 1, 7, 1, 6, 0, 4, 5] -&gt; # of conflicts = 5\n[3, 3, 7, 1, 6, 0, 4, 5] -&gt; # of conflicts = 7\n[3, 4, 7, 1, 6, 0, 4, 5] -&gt; # of conflicts = 7\n[3, 5, 7, 1, 6, 0, 4, 5] -&gt; # of conflicts = 5\n[3, 6, 7, 1, 6, 0, 4, 5] -&gt; # of conflicts = 6\n[3, 7, 7, 1, 6, 0, 4, 5] -&gt; # of conflicts = 5\n[3, 2, 0, 1, 6, 0, 4, 5] -&gt; # of conflicts = 9\n[3, 2, 1, 1, 6, 0, 4, 5] -&gt; # of conflicts = 8\n[3, 2, 2, 1, 6, 0, 4, 5] -&gt; # of conflicts = 7\n[3, 2, 3, 1, 6, 0, 4, 5] -&gt; # of conflicts = 8\n[3, 2, 4, 1, 6, 0, 4, 5] -&gt; # of conflicts = 7\n[3, 2, 5, 1, 6, 0, 4, 5] -&gt; # of conflicts = 7\n[3, 2, 6, 1, 6, 0, 4, 5] -&gt; # of conflicts = 6\n[3, 2, 7, 0, 6, 0, 4, 5] -&gt; # of conflicts = 6\n[3, 2, 7, 2, 6, 0, 4, 5] -&gt; # of conflicts = 5\n[3, 2, 7, 3, 6, 0, 4, 5] -&gt; # of conflicts = 4\n[3, 2, 7, 4, 6, 0, 4, 5] -&gt; # of conflicts = 5\n[3, 2, 7, 5, 6, 0, 4, 5] -&gt; # of conflicts = 5\n[3, 2, 7, 6, 6, 0, 4, 5] -&gt; # of conflicts = 6\n[3, 2, 7, 7, 6, 0, 4, 5] -&gt; # of conflicts = 6\n[3, 2, 7, 1, 0, 0, 4, 5] -&gt; # of conflicts = 6\n[3, 2, 7, 1, 1, 0, 4, 5] -&gt; # of conflicts = 6\n[3, 2, 7, 1, 2, 0, 4, 5] -&gt; # of conflicts = 8\n[3, 2, 7, 1, 3, 0, 4, 5] -&gt; # of conflicts = 5\n[3, 2, 7, 1, 4, 0, 4, 5] -&gt; # of conflicts = 5\n[3, 2, 7, 1, 5, 0, 4, 5] -&gt; # of conflicts = 7\n[3, 2, 7, 1, 7, 0, 4, 5] -&gt; # of conflicts = 6\n[3, 2, 7, 1, 6, 1, 4, 5] -&gt; # of conflicts = 6\n[3, 2, 7, 1, 6, 2, 4, 5] -&gt; # of conflicts = 6\n[3, 2, 7, 1, 6, 3, 4, 5] -&gt; # of conflicts = 9\n[3, 2, 7, 1, 6, 4, 4, 5] -&gt; # of conflicts = 7\n[3, 2, 7, 1, 6, 5, 4, 5] -&gt; # of conflicts = 8\n[3, 2, 7, 1, 6, 6, 4, 5] -&gt; # of conflicts = 7\n[3, 2, 7, 1, 6, 7, 4, 5] -&gt; # of conflicts = 8\n[3, 2, 7, 1, 6, 0, 0, 5] -&gt; # of conflicts = 3\n[3, 2, 7, 1, 6, 0, 1, 5] -&gt; # of conflicts = 4\n[3, 2, 7, 1, 6, 0, 2, 5] -&gt; # of conflicts = 3\n[3, 2, 7, 1, 6, 0, 3, 5] -&gt; # of conflicts = 4\n[3, 2, 7, 1, 6, 0, 5, 5] -&gt; # of conflicts = 3\n[3, 2, 7, 1, 6, 0, 6, 5] -&gt; # of conflicts = 4\n[3, 2, 7, 1, 6, 0, 7, 5] -&gt; # of conflicts = 4\n[3, 2, 7, 1, 6, 0, 4, 0] -&gt; # of conflicts = 4\n[3, 2, 7, 1, 6, 0, 4, 1] -&gt; # of conflicts = 4\n[3, 2, 7, 1, 6, 0, 4, 2] -&gt; # of conflicts = 6\n[3, 2, 7, 1, 6, 0, 4, 3] -&gt; # of conflicts = 6\n[3, 2, 7, 1, 6, 0, 4, 4] -&gt; # of conflicts = 4\n[3, 2, 7, 1, 6, 0, 4, 6] -&gt; # of conflicts = 4\n[3, 2, 7, 1, 6, 0, 4, 7] -&gt; # of conflicts = 4"
  },
  {
    "objectID": "lectures/17/slides.html#get_neighbors",
    "href": "lectures/17/slides.html#get_neighbors",
    "title": "Local Search",
    "section": "get_neighbors",
    "text": "get_neighbors\n\ndef get_neighbors(state):\n\n    \"\"\"Generates neighboring states by swapping two rows.\"\"\"\n\n    neighbors = []\n    n = len(state)\n\n    for i in range(n):\n        for j in range(i + 1, n):\n            new_state = state[:]\n            new_state[i], new_state[j] = new_state[j], new_state[i]\n            neighbors.append(new_state)\n\n    return neighbors\n\n\n\n\\(\\frac{8 \\times 7}{2} = 28\\) neighbours"
  },
  {
    "objectID": "lectures/17/slides.html#get_neighbors-1",
    "href": "lectures/17/slides.html#get_neighbors-1",
    "title": "Local Search",
    "section": "get_neighbors",
    "text": "get_neighbors\n\nprint(initial_state_8)\nfor s in get_neighbors(initial_state_8):\n  print(f\"{s} -&gt; # of conflicts = {calculate_conflicts(s)}\")\n\n[3, 2, 7, 1, 6, 0, 4, 5]\n[2, 3, 7, 1, 6, 0, 4, 5] -&gt; # of conflicts = 8\n[7, 2, 3, 1, 6, 0, 4, 5] -&gt; # of conflicts = 6\n[1, 2, 7, 3, 6, 0, 4, 5] -&gt; # of conflicts = 3\n[6, 2, 7, 1, 3, 0, 4, 5] -&gt; # of conflicts = 3\n[0, 2, 7, 1, 6, 3, 4, 5] -&gt; # of conflicts = 7\n[4, 2, 7, 1, 6, 0, 3, 5] -&gt; # of conflicts = 3\n[5, 2, 7, 1, 6, 0, 4, 3] -&gt; # of conflicts = 6\n[3, 7, 2, 1, 6, 0, 4, 5] -&gt; # of conflicts = 5\n[3, 1, 7, 2, 6, 0, 4, 5] -&gt; # of conflicts = 3\n[3, 6, 7, 1, 2, 0, 4, 5] -&gt; # of conflicts = 7\n[3, 0, 7, 1, 6, 2, 4, 5] -&gt; # of conflicts = 4\n[3, 4, 7, 1, 6, 0, 2, 5] -&gt; # of conflicts = 3\n[3, 5, 7, 1, 6, 0, 4, 2] -&gt; # of conflicts = 4\n[3, 2, 1, 7, 6, 0, 4, 5] -&gt; # of conflicts = 7\n[3, 2, 6, 1, 7, 0, 4, 5] -&gt; # of conflicts = 5\n[3, 2, 0, 1, 6, 7, 4, 5] -&gt; # of conflicts = 10\n[3, 2, 4, 1, 6, 0, 7, 5] -&gt; # of conflicts = 4\n[3, 2, 5, 1, 6, 0, 4, 7] -&gt; # of conflicts = 4\n[3, 2, 7, 6, 1, 0, 4, 5] -&gt; # of conflicts = 5\n[3, 2, 7, 0, 6, 1, 4, 5] -&gt; # of conflicts = 5\n[3, 2, 7, 4, 6, 0, 1, 5] -&gt; # of conflicts = 4\n[3, 2, 7, 5, 6, 0, 4, 1] -&gt; # of conflicts = 4\n[3, 2, 7, 1, 0, 6, 4, 5] -&gt; # of conflicts = 6\n[3, 2, 7, 1, 4, 0, 6, 5] -&gt; # of conflicts = 4\n[3, 2, 7, 1, 5, 0, 4, 6] -&gt; # of conflicts = 4\n[3, 2, 7, 1, 6, 4, 0, 5] -&gt; # of conflicts = 3\n[3, 2, 7, 1, 6, 5, 4, 0] -&gt; # of conflicts = 5\n[3, 2, 7, 1, 6, 0, 5, 4] -&gt; # of conflicts = 2"
  },
  {
    "objectID": "lectures/17/slides.html#hill_climbing",
    "href": "lectures/17/slides.html#hill_climbing",
    "title": "Local Search",
    "section": "hill_climbing",
    "text": "hill_climbing\n\ndef hill_climbing(current_state):\n\n    current_conflicts = calculate_conflicts(current_state)\n\n    while True:\n\n        if current_conflicts == 0:\n          r
…
